At1/styleGAN/mapping_checkpoint_epoch_99.pth (torch, 736176 bytes, 8 tensors)

main.0.weight f4 [256, 100]
0	0xbda06720	-0.078321695
1	0xbdd0816d	-0.10180936
2	0xbd059fd7	-0.03262314
3	0xbdbc54bf	-0.091958515
4	0xbd38a8b9	-0.04508278
5	0xbcd2b2ed	-0.025720084
6	0xbcff46d5	-0.031161705
7	0x3b1ae846	0.002363698
8	0xbdc66129	-0.096865006
9	0xbbc5be2b	-0.0060346327
10	0xbd50b416	-0.050952993
11	0xbd8007f8	-0.0625152
12	0xbd860380	-0.06543636
13	0xbd87c9e6	-0.06630306
14	0xbc4fa395	-0.012673278
15	0x3d4c0106	0.049805664
16	0xbdbb462a	-0.09144242
17	0xbcf44820	-0.029819548
18	0x3d0a04c0	0.033695936
19	0xbda3d517	-0.07999628
20	0x3d872987	0.065997176
21	0xbdb51202	-0.08841325
22	0xbcf89d0b	-0.030348321
23	0xbd6ece34	-0.05830212
24	0xbd00b041	-0.03141809
25	0x3d7bda1b	0.0614873
26	0x3da58ddf	0.080837004
27	0xbdb41d2b	-0.08794626
28	0x3d924bd7	0.071433716
29	0xbd696e73	-0.0569901
30	0xba30af08	-0.0006739949
31	0x3d73dfd4	0.05953963
32	0xbd5cb277	-0.053881135
33	0x3b2a5b2b	0.0025994282
34	0x3d0c6f07	0.03428557
35	0xbd589d77	-0.052884545
36	0x3d86f3d8	0.06589478
37	0xbd25e8ab	-0.040505093
38	0x3cab3940	0.020901322
39	0xbd8f0f8e	-0.06985389
40	0xbd972be2	-0.07381417
41	0x3d1e6987	0.038674857
42	0x3d8b0a03	0.06789019
43	0x3d3916cd	0.04518776
44	0x3d378104	0.044800773
45	0xbd326509	-0.043553386
46	0x3d3c8e74	0.04603429
47	0x3d3102cd	0.04321556
48	0x3d89c0e9	0.06726248
49	0x3d07f7a8	0.033195168
50	0xbd9b74a7	-0.07590609
51	0x3dbcb9ec	0.09215149
52	0xbdc56ad5	-0.09639517
53	0xbd8c7e7d	-0.06860063
54	0xbdb9805a	-0.09057684
55	0xbd5903af	-0.05298203
56	0xbdbdffd3	-0.0927731
57	0x3c2fecd2	0.010737615
58	0xbd27dec4	-0.04098393
59	0xbcc303d2	-0.023805533
60	0x3d41363a	0.047170855
61	0x3d2753ed	0.040851522
62	0x3d439f72	0.04775948
63	0xb9378bc7	-0.00017504311
64	0x3d238e33	0.039930534
65	0xbdc13084	-0.09433082
66	0x3d5124bf	0.051060434
67	0x3d52ebc1	0.051494364
68	0x3da53f82	0.08068754
69	0xbcb23529	-0.021753864
70	0x3d068d22	0.03284944
71	0x3cf9e29a	0.03050356
72	0xbdaf69b4	-0.08565083
73	0xbc29010e	-0.010315193
74	0xbc868d89	-0.016424911
75	0x3d8c6a02	0.06856157
76	0x3c9f492c	0.01944407
77	0x3cb1100d	0.021614099
78	0x3d118d7d	0.035535324
79	0x3c9828d8	0.018574163
80	0xbd07e387	-0.03317597
81	0xbd5f3783	-0.0544963
82	0x3cbaa3a4	0.022783108
83	0x3d267795	0.040641386
84	0xbd2ffbdf	-0.042964812
85	0xbdc34d3a	-0.09536214
86	0x3c41ca61	0.011828036
87	0xbdb56880	-0.088578224
88	0xbdd0554b	-0.10172518
89	0xba25fc68	-0.0006331862
90	0x3ced27e3	0.028949684
91	0x3c6c7729	0.014432707
92	0x3db00aa0	0.085957766
93	0x3d3258b0	0.04354161
94	0x3d9bcbfb	0.076072656
95	0xbdb3a5b7	-0.08771842
96	0x3d27d26e	0.040972166
97	0xbd65978a	-0.056052722
98	0xbd3e8f76	-0.046523534
99	0xbd2f5245	-0.042803068
100	0x3cc2e0e4	0.023788877
101	0x3d70025f	0.05859601
102	0x3b781098	0.0037851688
103	0x3d5b48ef	0.05353635
104	0x3dcab12d	0.09897075
105	0xbd9a51d9	-0.075351425
106	0x3db24908	0.08705336
107	0x3d9663a6	0.07343225
108	0x3c512311	0.012764708
109	0xbd04aeb3	-0.03239317
110	0xbd2929ec	-0.041299745
111	0x3ca5de0e	0.020247485
112	0xbb0dbe77	-0.0021628418
113	0xbd25efe0	-0.040511966
114	0x3da181bf	0.07886075
115	0x3d63519f	0.05549776
116	0x3d2178ca	0.039421834
117	0x3d59cb09	0.053172145
118	0x3d7f443e	0.06232094
119	0x3c6c3edc	0.014419284
120	0x3d9a0764	0.07520941
121	0xbdb6d14b	-0.08926638
122	0xbcc69e94	-0.024245538
123	0x3d7da812	0.061927862
124	0x3c3350df	0.010944574
125	0x3d19648e	0.037449412
126	0x3d4a2543	0.04935194
127	0xbbb675e4	-0.005568253
128	0x3bc83dcb	0.006110882
129	0x3da879a9	0.0822633
130	0xbc947de2	-0.018126432
131	0xbdb2dab5	-0.08733121
132	0x3da57292	0.08078493
133	0x3d08335d	0.03325211
134	0x3d3556be	0.044272177
135	0x3d6b7beb	0.057491224
136	0xbcb9a205	-0.022660265
137	0x3d7dccae	0.061962776
138	0x3d9ef9c1	0.077624805
139	0x3d56e4db	0.052464347
140	0x3d535ab4	0.051600173
141	0xbc95e8db	-0.01829951
142	0x3ce6c8ba	0.028171886
143	0x3d2e3217	0.04252824
144	0xbd4690cc	-0.048477933
145	0x3da8082f	0.08204686
146	0x3d02f171	0.031968538
147	0x3d8b43c2	0.06800033
148	0x3ccb025e	0.024781402
149	0x3c94dc9f	0.018171607
150	0x3d9f3bb9	0.07775063
151	0x3d17083d	0.03687309
152	0xbd486aec	-0.048930094
153	0x3da92417	0.08258837
154	0x3da5a89b	0.080887996
155	0xbdb72236	-0.08942072
156	0x3b6756a1	0.0035299438
157	0xbd3bdec7	-0.045866754
158	0xbd676407	-0.056491878
159	0x3dc84463	0.09778669
160	0x3d1a66b4	0.0376956
161	0x3d7d72da	0.06187711
162	0x3d50b215	0.050951082
163	0xbd805e2e	-0.06267963
164	0xbda48736	-0.08033602
165	0x3d5211f6	0.05128666
166	0x3d2ca79a	0.042152025
167	0xbd97a444	-0.07404378
168	0xbd695d2c	-0.05697362
169	0x3d51a310	0.0511809
170	0x3b804305	0.0039142394
171	0xbdb7cf0f	-0.0897504
172	0x3da6753f	0.08127832
173	0xbd8da286	-0.069157645
174	0x3c752119	0.014961504
175	0xbd9d486d	-0.0767983
176	0x3da84f3c	0.08218238
177	0x3d0dba5b	0.03460155
178	0xbcddf501	-0.027094366
179	0x3d43e485	0.047825355
180	0x3d711d34	0.05886574
181	0xbc185c09	-0.009299287
182	0x3d4407fc	0.047859177
183	0x3cc247e8	0.023715928
184	0xbced5c5d	-0.028974706
185	0x3d968ab9	0.07350678
186	0x3dc4ee0c	0.09615716
187	0xbd885784	-0.06657317
188	0x3d63b518	0.055592626
189	0x3d612b9b	0.054973226
190	0xbd527b74	-0.051387265
191	0xbd7a6458	-0.06113085
192	0x3dc0cfd5	0.09414641
193	0xbd79ad41	-0.060956243
194	0x3d0fc345	0.035098333
195	0xbc224f0a	-0.00990654
196	0x3d6ac7b6	0.057319365
197	0xbcd37e1b	-0.025816968
198	0x3daacdeb	0.08340057
199	0x3ccca33c	0.02498018
200	0xbcda1442	-0.026620988
201	0xbd4aadd3	-0.049482178
202	0x3d37a148	0.044831544
203	0x3d2a958b	0.04164652
204	0xbc8e82f0	-0.01739642
205	0x3d7e8eda	0.062147953
206	0x3c3cfde8	0.011535145
207	0xbc7fe5e0	-0.015618771
208	0x3d6aecbe	0.05735468
209	0xbd8d8247	-0.06909614
210	0xbc1daa08	-0.009623058
211	0x3dc2a4de	0.09504102
212	0x3d2206f9	0.03955743
213	0x3d946262	0.072453275
214	0x3dcb5605	0.09928516
215	0xbd383818	-0.04497537
216	0xbd538663	-0.051641833
217	0xbdaf8dff	-0.085720055
218	0xbd4e9fab	-0.05044524
219	0x3cd7a4cd	0.0263237
220	0x3d5e31e2	0.05424679
221	0xbbf11823	-0.0073576136
222	0x3d6bf9d1	0.05761129
223	0xbcec6647	-0.028857363
224	0xbd48304c	-0.048874184
225	0xbda6f2a9	-0.081517525
226	0xbd6b0511	-0.05737788
227	0x3d36edf0	0.04466051
228	0x3d22d7b9	0.03975651
229	0xbc2a2d7f	-0.010386824
230	0x3d825645	0.06364111
231	0xbcc3eb59	-0.023915933
232	0x3d9ee3e1	0.07758308
233	0xbc5fd17d	-0.013660786
234	0x3da3bf2e	0.07995449
235	0xbdb8f48c	-0.090310186
236	0x3d7a5039	0.061111663
237	0x3ca8cd06	0.020605575
238	0x3d87d33d	0.066320874
239	0x3c14d4a1	0.009083898
240	0xbdb05807	-0.0861054
241	0x3daa7ecf	0.08324968
242	0xbdb83267	-0.089939885
243	0x3d0693ff	0.032855984
244	0x3d994ac5	0.07484964
245	0x3d22a753	0.039710354
246	0x3d1148a4	0.035469666
247	0xb96daceb	-0.00022666498
248	0x3db53ec9	0.08849866
249	0xbc93b263	-0.018029397
250	0x3cecb59b	0.02889519
251	0x3dab751c	0.08371946
252	0xbcd0d308	-0.025491253
253	0x3d5acf09	0.0534201
254	0xbdb70173	-0.08935823
255	0xba4dc5ff	-0.0007849633

main.0.bias f4 [256]
0	0x3d9ff006	0.07809453
1	0xbce17605	-0.027522096
2	0x3da1121f	0.078647844
3	0x3da1f168	0.07907373
4	0x3ce26f67	0.027641011
5	0xbdcdf2b1	-0.10056055
6	0xbac950a6	-0.0015359118
7	0xbd80e280	-0.062932014
8	0x3d92fded	0.07177339
9	0xbbca0645	-0.006165298
10	0xbdaa9106	-0.08328442
11	0x3d8ab580	0.067729
12	0xbbdbc496	-0.0067067845
13	0x3da13fb2	0.07873477
14	0xbdc86641	-0.097851284
15	0x3dc8081e	0.09767173
16	0xbd239cf9	-0.039944623
17	0xbcb68ba0	-0.022283375
18	0xbc812847	-0.015766276
19	0x3d933f5d	0.0718982
20	0x3dd071c2	0.101779476
21	0x3db88a57	0.09010761
22	0xbd5a24d6	-0.053257786
23	0x3dcc4333	0.09973755
24	0x3da9984c	0.082810014
25	0xbdaa22bb	-0.083074056
26	0x3dcd5a63	0.100270055
27	0xbb5884f6	-0.0033038235
28	0x3da0e256	0.0785567
29	0xbd12a635	-0.03580304
30	0xbdcecbeb	-0.10097488
31	0x3daf7779	0.085677095
32	0x3d8898c8	0.06669766
33	0xbb958081	-0.004562438
34	0xbd7ed568	-0.06221524
35	0xbdb5b6c9	-0.08872754
36	0x3db88c95	0.09011189
37	0xbd88f667	-0.066876225
38	0xbd5c546c	-0.05379145
39	0x3dd5661d	0.10419867
40	0xbdbbbd8a	-0.09167011
41	0x3d6a8f8e	0.05726581
42	0xbb6f2aab	-0.0036493938
43	0x3d1b8658	0.037969917
44	0x3d2bf9d6	0.04198631
45	0xbbd37d52	-0.0064541483
46	0x3dcd1e32	0.10015525
47	0x3d11758f	0.035512503
48	0xbda7a2c8	-0.08185345
49	0xbc89718a	-0.016777772
50	0xbdae6b88	-0.08516604
51	0xbd09c865	-0.033638377
52	0xbd9e91ba	-0.07742639
53	0x3d61b236	0.055101596
54	0x3cbc7c71	0.023008557
55	0xbd15be15	-0.03655823
56	0xb9d514da	-0.00040642062
57	0xbdbb50b7	-0.091462545
58	0xbd9702f6	-0.07373612
59	0xbd873711	-0.066023
60	0x3d4eb5db	0.0504664
61	0x3cc8ce16	0.024512332
62	0x3dcef121	0.101045854
63	0x3d935dfc	0.071956605
64	0xbd9ed827	-0.077560715
65	0x3d36c1f0	0.044618547
66	0xbdd0ccee	-0.10195337
67	0xbdbd7802	-0.09251405
68	0x3dab57e8	0.08366376
69	0x3dbc1569	0.09183771
70	0x3ab74f8a	0.0013985496
71	0xbdc427bd	-0.09577892
72	0x3d0d09da	0.034433223
73	0xbdab6fe6	-0.08370952
74	0xbd2b6ccf	-0.041851815
75	0x3d9dc090	0.07702744
76	0x3db860f9	0.09002871
77	0xbd873771	-0.066023715
78	0xbd220d2f	-0.039563354
79	0x3d880a07	0.066425376
80	0x3d00c46e	0.03143733
81	0x3db6e184	0.089297324
82	0x3d700146	0.058594964
83	0x3d51e3e7	0.051242735
84	0x3dc37dcc	0.09545478
85	0xbbe8675d	-0.0070924
86	0x3da0d19a	0.07852478
87	0xbbf3bae1	-0.007438049
88	0xbda0afdb	-0.07846042
89	0x3d339445	0.043842573
90	0xbdc04231	-0.09387625
91	0x3bd0bd63	0.006370233
92	0x3c4edf43	0.012626472
93	0x3bd90332	0.0066226954
94	0xbcb1a95f	-0.021687208
95	0xbdccf088	-0.10006815
96	0x3db529ef	0.08845889
97	0xbdc041a7	-0.09387522
98	0x3dae92d3	0.08524098
99	0x3c96634b	0.018357893
100	0x3d3fa979	0.04679248
101	0x3c0e2b56	0.008677324
102	0xbc210ab8	-0.009829216
103	0xbd0193a5	-0.031634945
104	0xbb036154	-0.0020047026
105	0xbd9a211b	-0.075258456
106	0x3d9a15cf	0.07523691
107	0xbc760c7c	-0.015017625
108	0xbd312d38	-0.043256015
109	0xba57c466	-0.0008230865
110	0xbd8fc624	-0.07020214
111	0xbcb3dc79	-0.021955715
112	0x3ad800b6	0.0016479704
113	0xbd62f7e6	-0.055412196
114	0x3d3dcf3e	0.04634022
115	0x3d712406	0.058872245
116	0x3bf47f81	0.0074614887
117	0xbaed0f54	-0.0018086233
118	0x3dc718e6	0.09721546
119	0x3d76ce17	0.060255136
120	0xbd5306b7	-0.051520076
121	0x3d993248	0.074802935
122	0x3daff6cc	0.08591995
123	0xbd6aad90	-0.05729443
124	0xbc8105e4	-0.01574988
125	0xbdc51eae	-0.09624992
126	0xbd2e4efe	-0.0425558
127	0xbd2dac6b	-0.04240076
128	0x3db79d1f	0.08965515
129	0xbd359c2c	-0.04433839
130	0xbdaa9a24	-0.08330181
131	0x3dafb5a0	0.08579564
132	0xbdc11d5c	-0.09429428
133	0xbc6f1e97	-0.0145946955
134	0xbd37a1eb	-0.04483215
135	0xbd775d75	-0.060391862
136	0x3d798f08	0.06092742
137	0x3d9cb819	0.07652301
138	0xbdb2a479	-0.08722777
139	0xbc9662da	-0.018357683
140	0x3cd1a8c1	0.025593163
141	0x3da83972	0.08214082
142	0xbc3a1fa0	-0.011360079
143	0x3d6a9142	0.057267435
144	0x3d33333b	0.04375003
145	0xbcaa4be2	-0.020788137
146	0xbd143cb3	-0.0361907
147	0xbc8b7585	-0.017023811
148	0xbc150a04	-0.009096626
149	0xbc12a015	-0.008949299
150	0x3d419a86	0.047266506
151	0xbd9a96aa	-0.07548268
152	0x3d6defc8	0.05809
153	0xbd3b047a	-0.045658566
154	0xbd8d8941	-0.06910945
155	0xbc0d5f5e	-0.008628694
156	0xbcef90cf	-0.029243855
157	0x3cddc8f5	0.027073363
158	0xbd4478d1	-0.047966782
159	0xbd808e47	-0.06277137
160	0xbd350b99	-0.044200514
161	0x3da2bc64	0.07946089
162	0xbdad0784	-0.08448699
163	0xbc45445e	-0.012040226
164	0xbdbca6d4	-0.092115074
165	0x3dd28750	0.10279715
166	0x3d8aacae	0.06771217
167	0xbd1fc530	-0.039006412
168	0xbd567990	-0.052362025
169	0x3b8afa18	0.0042412393
170	0xbd48e1c1	-0.04904342
171	0x3db2b075	0.08725063
172	0xbd5ab8d4	-0.053398922
173	0x3d3299bb	0.04360364
174	0x3da423a1	0.08014608
175	0x3d5ccdf5	0.053907353
176	0xbdb3205b	-0.08746406
177	0xbd2e14d4	-0.042500332
178	0x3d1edd61	0.038785342
179	0x3da2534e	0.07926045
180	0x3dbc466c	0.091931194
181	0x3d4ac2e9	0.049502287
182	0x3ca29414	0.019846
183	0x3d2f6866	0.04282417
184	0xbd3711a2	-0.04469455
185	0xbd948b1a	-0.07253094
186	0xbc568a32	-0.013094472
187	0x3dc91d52	0.098200455
188	0xbcdff8dd	-0.027340347
189	0xbc2cc3b9	-0.010544711
190	0xbd8d1126	-0.068880364
191	0xbd9c03d3	-0.07617917
192	0xbcd10f49	-0.025519984
193	0xbc9744b8	-0.018465385
194	0x3c890889	0.016727703
195	0x3d3ac641	0.045599226
196	0x3d592012	0.0530091
197	0xbd1ac32f	-0.037783798
198	0xbd1c1c2f	-0.038112815
199	0xbd484621	-0.048895005
200	0xbd8c67e9	-0.06855757
201	0xbd85b9cc	-0.065295786
202	0xbd976b56	-0.073935196
203	0xbcc6bc4c	-0.024259709
204	0x3d886745	0.06660322
205	0x3d72cf89	0.059279952
206	0xbdbcb275	-0.092137255
207	0xbd0070c5	-0.031357545
208	0xbbd4868e	-0.0064857667
209	0xbd6e23fa	-0.05813978
210	0xbd24076a	-0.040046133
211	0xbdcba916	-0.0994436
212	0x3d082cdb	0.033245903
213	0x3dbfba5e	0.093617186
214	0x3d905a61	0.070484884
215	0x3d4f3013	0.050582957
216	0x3dbf518a	0.09341724
217	0x3dd82394	0.10553661
218	0xbd375980	-0.04476309
219	0x3d580c96	0.052746378
220	0x3c866d86	0.016409647
221	0xbd4d8a9a	-0.05018101
222	0x3c5d803a	0.013519341
223	0x3c77c71c	0.015123155
224	0x3cee5b21	0.029096188
225	0xbc1a30b0	-0.009411022
226	0x3d69e70a	0.0571051
227	0xbce30cd2	-0.027716074
228	0x3d7ae27c	0.06125115
229	0x3d54b4ac	0.051930115
230	0x3c6e8b69	0.014559605
231	0xbd24096c	-0.040048048
232	0x3d056c86	0.0325742
233	0x3d1a2205	0.0376301
234	0xbcccff88	-0.02502419
235	0x3cea260d	0.028582597
236	0xbceadbc5	-0.028669247
237	0x3dc40685	0.09571556
238	0xbc7a1a2c	-0.015265029
239	0xbd9b2756	-0.07575862
240	0xbd730939	-0.059334967
241	0x3d1a7f78	0.03771922
242	0x3d385901	0.045006756
243	0x3d17bec1	0.03704715
244	0x3d9dad4c	0.076990694
245	0xbd1a6ed5	-0.037703354
246	0x3db7cc5e	0.08974527
247	0xbcf9f212	-0.030510936
248	0x3cfaaa27	0.030598713
249	0x3b7b1ceb	0.0038316797
250	0x3da74dba	0.08169122
251	0xbc5de874	-0.013544191
252	0x3c5fb5b5	0.013654162
253	0xbd992418	-0.074775875
254	0x3da5afd5	0.08090178
255	0x3d9aa159	0.07550306

main.2.weight f4 [256, 256]
0	0xbd464bda	-0.04841218
1	0xbccc5c5f	-0.02494639
2	0xbb9e0d41	-0.0048233573
3	0xbc0fb09a	-0.008770132
4	0xbcd29882	-0.025707487
5	0xbb8b8161	-0.0042573665
6	0xbcc56cec	-0.02409979
7	0x3a6a556d	0.0008939121
8	0xbc597de3	-0.013274643
9	0x3c9e3b0e	0.019315269
10	0xbce6829d	-0.028138453
11	0xbc507a85	-0.012724523
12	0x3b508a59	0.0031820743
13	0xbb8b49c8	-0.004250739
14	0xbd3e96d0	-0.046530545
15	0x3caf5636	0.021403413
16	0x3d61d32a	0.055133022
17	0x3d06c2cf	0.032900628
18	0xbc39e158	-0.01134523
19	0xbcac6a15	-0.021046678
20	0xbd7d0f4d	-0.06178217
21	0x3c540398	0.01294031
22	0xbd573ee6	-0.05255022
23	0x3bb58d2b	0.00554051
24	0x3c2ffbe1	0.010741205
25	0xbc2d0cb6	-0.010562113
26	0xbd5d7604	-0.054067627
27	0x3bc81a68	0.0061066635
28	0x3b889b40	0.004168898
29	0x3c7f1826	0.015569722
30	0xbd77b5dc	-0.06047617
31	0x3abfb51e	0.0014626121
32	0xbd7f570e	-0.06233888
33	0xbd022b7e	-0.03177976
34	0xbcdb75ce	-0.026789572
35	0xbbb0bc8e	-0.005393571
36	0xbd39c680	-0.04535532
37	0xbd09c3f7	-0.033634152
38	0xbab9fcbe	-0.0014189703
39	0xbd64e2a1	-0.055880193
40	0x3d039376	0.03212305
41	0xbcc5cfe0	-0.024146974
42	0x3cd672ae	0.02617773
43	0x3c807a97	0.015683455
44	0x3d4842d2	0.04889185
45	0x3ccdaa07	0.02510549
46	0x3d137775	0.036002595
47	0xbd655a4b	-0.055994313
48	0xbd7f32cf	-0.062304314
49	0xbc0b74a7	-0.008511699
50	0x3be12501	0.0068708663
51	0xbcda1fe1	-0.02662653
52	0xbd1848d7	-0.03717884
53	0x3d38cf51	0.045119587
54	0xbd22bd96	-0.039731584
55	0x3ca281ca	0.019837279
56	0xbd3aaf11	-0.045577113
57	0xbd35400f	-0.044250544
58	0xbd196861	-0.03745306
59	0xbd45332f	-0.048144516
60	0xbd3562d9	-0.04428372
61	0xbd059bcb	-0.03261928
62	0x3c50b743	0.0127390055
63	0x3c95a152	0.0182654
64	0x3d4d796c	0.050164625
65	0xbcee5953	-0.029095327
66	0x3a35df77	0.0006937901
67	0xbd1cecfb	-0.03831194
68	0x3c943568	0.018091872
69	0xbcf5c5a2	-0.030001465
70	0xbd3fb652	-0.046804734
71	0xbd5cfc06	-0.053951286
72	0x3c26dc1c	0.010184314
73	0x3d3baa7f	0.045816895
74	0xbc7b9e6e	-0.015357597
75	0xbd088563	-0.033330332
76	0x3d1f3a81	0.038874153
77	0xbd11b789	-0.035575423
78	0xbd66939a	-0.056293108
79	0xbc5b756f	-0.013394698
80	0xbd449fe1	-0.048004035
81	0xbd81e827	-0.06343108
82	0x3d25ad16	0.04044827
83	0xbd331fd2	-0.043731518
84	0x3d559833	0.0521471
85	0xbd309bc7	-0.04311731
86	0xbb0644e3	-0.0020487837
87	0xbd6ea8f3	-0.05826659
88	0x3d7ae668	0.06125489
89	0x3d217e30	0.039426982
90	0x3c3e3eb0	0.011611626
91	0x3d46c326	0.04852595
92	0x3d048dc2	0.032361753
93	0x3c729f53	0.014808494
94	0x3cf20da6	0.029547524
95	0x3b3c5984	0.002873988
96	0xbd1a60b8	-0.037689894
97	0x3ce29147	0.027657164
98	0xbcccefa3	-0.025016611
99	0xbd035f8c	-0.032073542
100	0x3d69470e	0.05695253
101	0x3b03805e	0.0020065526
102	0xbd2c3d34	-0.042050555
103	0x3d1f0b59	0.03882918
104	0xbd0331d6	-0.03202995
105	0xbd0b73b7	-0.0340459
106	0x3b66c447	0.0035212205
107	0x3bec9481	0.0072198515
108	0xbce4a173	-0.027909016
109	0xbca002f4	-0.019532658
110	0x3c4bde8f	0.012443199
111	0x3cf93084	0.030418642
112	0x3cb6bf61	0.022308053
113	0xbd4b0c91	-0.04957253
114	0x3cc8211e	0.024429854
115	0x3d5f3860	0.054497123
116	0x3cc8949d	0.024484927
117	0xbd0b3073	-0.03398175
118	0xbd478fd5	-0.048721153
119	0xbc1b28f6	-0.009470215
120	0xbb100ccb	-0.0021980281
121	0xbcdd286b	-0.026996812
122	0xbca61907	-0.020275606
123	0x39de0957	0.00042350098
124	0x3cb41e81	0.021987202
125	0x3c7b8367	0.015351153
126	0xbcbd8be4	-0.023137994
127	0xbd06e161	-0.03292978
128	0x3cbff2e2	0.023431245
129	0xbd7249f5	-0.059152562
130	0x3d0cb626	0.034353398
131	0xbd03a894	-0.03214319
132	0x3d2b5b6f	0.041835245
133	0x3d0d7e73	0.03454442
134	0x3d2f57aa	0.042808212
135	0x3d53cfb7	0.051711764
136	0xbd13d344	-0.03609015
137	0x3bb91746	0.0056485264
138	0xbc68ac9b	-0.014201309
139	0xbd59627c	-0.053072438
140	0xbd3046bc	-0.043036208
141	0x3d2461c5	0.040132303
142	0x3c320d8d	0.010867489
143	0x3c04185b	0.008062447
144	0xbcf63c75	-0.030058125
145	0xbcae54cf	-0.021280674
146	0xbd2fa144	-0.042878404
147	0x3cf6a9a0	0.03011018
148	0x3c2965db	0.010339226
149	0x3c9d7d85	0.019224891
150	0x3d2b1d69	0.041776095
151	0x3d518a78	0.051157445
152	0xbc1fbc18	-0.009749435
153	0x3cfc9d1f	0.03083664
154	0x3d36c430	0.044620693
155	0xbd7a4eea	-0.061110415
156	0x3c913d70	0.017729491
157	0x3cdd3d65	0.027006814
158	0x3d2e69d2	0.042581387
159	0xbd4f745e	-0.050648086
160	0xbd5e201c	-0.05422984
161	0xbd6d5537	-0.057942595
162	0xbd147977	-0.03624865
163	0x3d4e4525	0.05035891
164	0xbc24ee3d	-0.010066566
165	0xbca59765	-0.020213792
166	0x3d4ee549	0.050511632
167	0xbcb7935b	-0.022409132
168	0xbd822c96	-0.0635616
169	0x3d1aa6f1	0.037756864
170	0xbd6bdbb9	-0.05758259
171	0x3d54bcdd	0.051937927
172	0xbbe080c3	-0.006851287
173	0x3cb8517b	0.02249979
174	0x3c918ab0	0.017766327
175	0x3c61ae09	0.013774403
176	0x3d4d0441	0.050052885
177	0x3d5abb34	0.053401187
178	0x3d335b20	0.043788075
179	0x3b9c269a	0.004765344
180	0xbd86a03b	-0.0657353
181	0xbba9662d	-0.005169651
182	0xbc4d8d22	-0.012545856
183	0x3ad31ee0	0.0016107224
184	0xbd2c7ba3	-0.042110097
185	0xbd306d9a	-0.043073274
186	0xbd410d07	-0.047131564
187	0x3d4c8092	0.0499273
188	0x3c8a4431	0.01687822
189	0xbc07b3b4	-0.008282591
190	0xbd0c2a67	-0.034220126
191	0xbd071812	-0.03298194
192	0x3cea0a84	0.028569467
193	0x3d21bc94	0.039486483
194	0x3c00c2a1	0.007858903
195	0x3d0289b7	0.031869616
196	0xbc7527ef	-0.014963134
197	0xbc44e049	-0.012016364
198	0xbd7b7643	-0.06139208
199	0xbd6f4616	-0.05841645
200	0xbbbda069	-0.0057869446
201	0xbd269bc4	-0.040675893
202	0x3d18709b	0.037216764
203	0xbcfc1a72	-0.030774329
204	0xbbb8c376	-0.005638535
205	0xbd2ac2a7	-0.04168954
206	0xbd56a2ab	-0.052401226
207	0xbd49cb39	-0.049266074
208	0x3d588bf6	0.052867852
209	0xbd3a37d4	-0.045463398
210	0xbc9de861	-0.019275846
211	0xbbc8b656	-0.0061252518
212	0x3a25f7a6	0.0006331153
213	0x3bd49360	0.006487295
214	0x3d3a9d75	0.04556032
215	0x3d13bcc5	0.036068697
216	0x3cb14461	0.02163905
217	0xbd659194	-0.056047037
218	0x3d6019c0	0.054712057
219	0x3d35416b	0.04425184
220	0xbb6c11f8	-0.0036021452
221	0xbd1b0763	-0.03784884
222	0xbd0b0c2b	-0.03394715
223	0x3c0eaa4b	0.008707593
224	0x3c9aa9d0	0.018879801
225	0xbd7cf4ba	-0.061756827
226	0x3d6c3d1a	0.05767546
227	0xbd1bc778	-0.038032025
228	0xbd4682e6	-0.04846468
229	0xbd62c5b1	-0.055364314
230	0xbd10632a	-0.03525082
231	0xbccd932f	-0.025094597
232	0xba3760c8	-0.00069953175
233	0x3bddbf8a	0.006767218
234	0xbcf596ab	-0.02997907
235	0x3c3f2729	0.011667051
236	0xbc647857	-0.013944707
237	0x3d40dbc2	0.047084577
238	0xbbfa9d12	-0.007648119
239	0xba0ebbab	-0.0005444835
240	0xbc299135	-0.010349561
241	0x3bc3bdf4	0.005973572
242	0xbcbaa1c7	-0.02278222
243	0xbcc2a747	-0.023761405
244	0x3c1fffcc	0.009765577
245	0xbd4e18b6	-0.050316535
246	0xbb5b320e	-0.0033446583
247	0xbd5805ed	-0.052740026
248	0x3a755a5d	0.00093594735
249	0xbc4628f1	-0.012094722
250	0x3d572c1d	0.052532304
251	0x3c1ecb92	0.00969209
252	0xbd5179f8	-0.05114171
253	0x3a189443	0.00058204326
254	0x3d4ead2a	0.05045811
255	0x3cdbb123	0.026817864

main.2.bias f4 [256]
0	0xbcf9b25c	-0.030480556
1	0xbd9af09f	-0.07565426
2	0x3b74f37d	0.0037376576
3	0xbd5d4e39	-0.054029677
4	0x3c242cc3	0.010020438
5	0x3d3924fb	0.045201283
6	0x3d3ca30b	0.046053927
7	0x3d116d7d	0.035504807
8	0xbcf36b50	-0.029714257
9	0xbc83a333	-0.01606903
10	0xbd14c77d	-0.03632306
11	0x3d4b290f	0.049599703
12	0xbc5819e4	-0.013189767
13	0xbcfa7b22	-0.030576292
14	0xbd0df901	-0.034661297
15	0x3cc3ae8d	0.023886943
16	0xbd7c3a39	-0.061578963
17	0x3dc26bf9	0.094932504
18	0x3d20226b	0.039095324
19	0xbae04859	-0.0017111405
20	0x3c2ba64a	0.010476658
21	0xbd8207a7	-0.06349116
22	0xbd05e405	-0.03268816
23	0x3d030021	0.031982545
24	0xbbc99ffe	-0.0061531058
25	0xbbdcc176	-0.0067369295
26	0x3cf4bdca	0.029875655
27	0x3cfe7256	0.031060379
28	0x3dfacd63	0.12246206
29	0xbd65646f	-0.056003984
30	0xbd401928	-0.04689899
31	0x3dbf96f8	0.09354967
32	0x3c6704c6	0.014100259
33	0xbd83ef8b	-0.064421736
34	0xbcf387c9	-0.029727833
35	0xbc6628e7	-0.014047838
36	0xbc4c86d3	-0.0124833165
37	0xbd46e099	-0.048554037
38	0x3d1d9e5a	0.038481094
39	0xbd049e99	-0.032377813
40	0x3c90031d	0.01757961
41	0xbd4286f8	-0.047491997
42	0x3bf1c76e	0.00737851
43	0x3d3988de	0.045296542
44	0xbb6e1cf6	-0.003633318
45	0x3d50f902	0.051018722
46	0xbd0aed6e	-0.033917837
47	0x3be7d628	0.00707509
48	0x3c995035	0.018715004
49	0xbcbe8956	-0.023258846
50	0x3d810104	0.06299022
51	0xbd73d0da	-0.05952535
52	0xbd261ada	-0.04055295
53	0xbd438824	-0.047737256
54	0xbd85dc29	-0.06536133
55	0xbd45a90d	-0.048256923
56	0x3b9ced62	0.0047890404
57	0x3ce09b60	0.027417839
58	0x3d60e2b1	0.05490369
59	0xbd34a4a3	-0.044102322
60	0xbd1220e3	-0.035675894
61	0xbc374dcd	-0.011187983
62	0xbc6f1d71	-0.014594422
63	0xbd9af544	-0.07566312
64	0xbd2df950	-0.04247409
65	0xbd840c86	-0.06447701
66	0xbd201ad1	-0.039088074
67	0x3cee1f3b	0.029067626
68	0xbd2257ee	-0.039634638
69	0xbc9742b5	-0.018464426
70	0x3d272559	0.040807102
71	0xbc12670d	-0.008935702
72	0x3cf2dc1b	0.02964597
73	0x3c3fef9c	0.011714842
74	0x3d3f24b7	0.046665873
75	0xbd7bc102	-0.061463363
76	0x3c6f191b	0.014593388
77	0xbd899368	-0.06717569
78	0xbd4cc58e	-0.04999309
79	0xbc407b5d	-0.011748162
80	0xbcd58a62	-0.026066963
81	0xbd7f6076	-0.06234785
82	0x3d52fe2b	0.051511925
83	0xbd0af675	-0.033926446
84	0x3d2d351d	0.04228698
85	0xbd11e6ce	-0.035620503
86	0x3c826241	0.015915992
87	0x3a824d3c	0.000994123
88	0x3d194d07	0.037426975
89	0xbd93ffe3	-0.07226541
90	0xbd7478a2	-0.059685357
91	0xbbb81c97	-0.0056186425
92	0x3d46a8e6	0.048500918
93	0xbd6572ce	-0.05601769
94	0xbcd9be19	-0.026579903
95	0x3ce8faca	0.028439898
96	0xbd8473a4	-0.06467369
97	0x3d145c4e	0.03622084
98	0xbcfcd985	-0.03086544
99	0x3cc4074d	0.023929263
100	0xbbad1c25	-0.005282896
101	0x3c994295	0.018708507
102	0x3d136575	0.03598543
103	0xbcb8822b	-0.022523006
104	0xbd69fffe	-0.0571289
105	0xbbaac5e3	-0.005211578
106	0xbc23a464	-0.009987924
107	0x3c98951a	0.018625785
108	0x3c1ef8a0	0.0097028315
109	0xbd156128	-0.03646961
110	0x3d6244ed	0.055241514
111	0x3ccc1d19	0.024916219
112	0x3cc61dd4	0.024184145
113	0x3d977687	0.07395654
114	0xbbe83d10	-0.0070873573
115	0xbd8fe9b4	-0.07026997
116	0x3da43439	0.08017773
117	0x3d13a4fc	0.036046013
118	0xbd043673	-0.03227849
119	0xbb88222f	-0.0041544656
120	0x3d122da2	0.03568805
121	0x3d31fb2a	0.04345242
122	0xbd810889	-0.06300456
123	0x39b70c60	0.000349137
124	0x3ba2ff37	0.0049742716
125	0xbd8a5c11	-0.067558415
126	0xbd367e44	-0.04455401
127	0x3cc73137	0.02431546
128	0x3cf35a21	0.029706063
129	0x3c73664d	0.014855933
130	0x3d9173c2	0.07102157
131	0xbcc3cd06	-0.023901474
132	0x39e75157	0.00044120356
133	0xbcd49999	-0.025952147
134	0xbd76d794	-0.060264185
135	0xbd575b2d	-0.052577186
136	0x3dbbddf1	0.09173191
137	0x3bad7048	0.005292926
138	0x3d798f91	0.06092793
139	0x3c305ce4	0.010764334
140	0xbcfcc5d3	-0.030856049
141	0xbd7d65c4	-0.06186463
142	0xbd5af705	-0.053458232
143	0x3ca5af16	0.020225089
144	0x3d232386	0.0398288
145	0x3cb46719	0.022021817
146	0x3c053b60	0.008131832
147	0xbccd36e8	-0.025050595
148	0xbd735eb7	-0.0594165
149	0xbc90be23	-0.01766879
150	0x3ca621bb	0.020279756
151	0x3d7804fb	0.060551625
152	0x3c070477	0.008240811
153	0xbca3f22c	-0.020012937
154	0xbbe45aa4	-0.006968813
155	0xbd17b23f	-0.037035223
156	0xbc8e62b1	-0.017381044
157	0xbc9f18a2	-0.019420926
158	0x3cc0aa32	0.023518655
159	0xbd3354ee	-0.043782167
160	0x3d9491a1	0.07254339
161	0x3cb1e515	0.02171568
162	0x3c77052e	0.0150769185
163	0xbd130255	-0.035890896
164	0x3d3e5dba	0.046476103
165	0x3d46f2e8	0.048571497
166	0x3cef8265	0.029236982
167	0x3c14b313	0.009075898
168	0xbd838ab5	-0.06422941
169	0xbc8e2abe	-0.017354365
170	0xbc05cb96	-0.008166214
171	0xbc622f04	-0.013805155
172	0xbd3089bb	-0.0431001
173	0x3d9a3a4f	0.07530653
174	0xbd3a1eeb	-0.045439642
175	0x3d6e5c57	0.05819353
176	0x3b85b5f5	0.004080529
177	0x3d067e6e	0.032835416
178	0x3cd0624b	0.025437495
179	0x3d387a62	0.04503859
180	0x3d0606e0	0.0327214
181	0x3c16dd82	0.009208085
182	0xbd57a846	-0.052650712
183	0xbc023523	-0.007947239
184	0x3cef380d	0.029201532
185	0x3cfe065d	0.031008894
186	0x3ce578a6	0.028011631
187	0xbca36505	-0.01994563
188	0xbd0540b6	-0.032532416
189	0xbc387085	-0.0112572955
190	0xbd2ca5fa	-0.042150475
191	0x3d5212cc	0.051287457
192	0xbd85de7e	-0.06536578
193	0x3d63a4d8	0.05557713
194	0xbcd91272	-0.026498053
195	0xbd20239c	-0.03909646
196	0x3d50f5d2	0.051015683
197	0x3d948d5f	0.07253527
198	0xbcf56c75	-0.029958943
199	0xbd89c77b	-0.06727501
200	0x3c3c4468	0.011490919
201	0xbbe84aa0	-0.007088974
202	0xbc8918f2	-0.016735528
203	0x3d10f29d	0.035387624
204	0x3d6c43f1	0.05768198
205	0xbc59b0b8	-0.013286762
206	0xbcfbc64f	-0.03073421
207	0xbcd232be	-0.025658961
208	0x3daf6e29	0.08565933
209	0xbd1241f2	-0.03570742
210	0x3c04b283	0.008099201
211	0x3d55c46f	0.052189287
212	0xbd03756f	-0.032094415
213	0xbd952831	-0.072830565
214	0x3c9eee8b	0.019400856
215	0xbc7d755e	-0.015469877
216	0x3d7d088c	0.06177573
217	0xbd0dbb78	-0.034602612
218	0xbcee39ac	-0.029080234
219	0xbb56add6	-0.0032757423
220	0x3dc56c29	0.096397705
221	0xbb06b368	-0.0020553712
222	0x3daa3972	0.08311738
223	0xbd55fd75	-0.05224367
224	0xbd02a437	-0.03189489
225	0x3d23b77d	0.03996991
226	0x3d84fb08	0.06493193
227	0x3d212110	0.03933817
228	0xbd0914f6	-0.033467256
229	0x3d7acd82	0.061231144
230	0x3d60d6e3	0.054892432
231	0x3d2d6433	0.042331886
232	0xbc08bd36	-0.008345893
233	0xbc96d83a	-0.018413652
234	0xba004d97	-0.0004894374
235	0xbd421513	-0.04738338
236	0x3cc36cb2	0.02385554
237	0xbbac1e7c	-0.0052526575
238	0xbd470719	-0.048590753
239	0xbd11f357	-0.035632458
240	0x3aeca51e	0.001805458
241	0x3d472405	0.048618335
242	0xbc5cb02e	-0.013469739
243	0xbc5e7f11	-0.0135801
244	0xbd659dea	-0.0560588
245	0xbc3066c2	-0.010766687
246	0xbd116727	-0.035498764
247	0xbd4a7df4	-0.049436525
248	0xbd4d6b25	-0.05015101
249	0x3cef9336	0.029245
250	0x3cbf07d9	0.023319172
251	0x3d716e3f	0.05894303
252	0xbc95fec1	-0.018309953
253	0xbd19557f	-0.03743505
254	0x3d0ffd9c	0.03515397
255	0xbcbf9ad9	-0.023389267

main.4.weight f4 [256, 256]
0	0x3cf6110a	0.030037422
1	0xbc876eed	-0.016532386
2	0xbd755115	-0.05989178
3	0x3b0a5ac8	0.0021111239
4	0x3d48009f	0.048828717
5	0xbb10645e	-0.002203248
6	0xbb4d5f62	-0.003133737
7	0x3c5d3fcc	0.01350398
8	0xbabe325c	-0.0014510858
9	0xbd3a600f	-0.045501765
10	0xbd592e27	-0.05302253
11	0xbbba9b4c	-0.0056947824
12	0x3cfc4ef9	0.030799376
13	0x3ca7ff57	0.020507498
14	0xbc643309	-0.013928183
15	0x3cdf5b4c	0.027265213
16	0xbcb93e23	-0.022612637
17	0x3d26ae55	0.0406936
18	0x3cbbeb77	0.022939427
19	0x3d099f24	0.033599034
20	0x3d37a543	0.04483534
21	0x3ce24005	0.027618418
22	0x3c3bd2b8	0.0114638135
23	0xbc2930c2	-0.010326566
24	0x3d312052	0.043243714
25	0xbd210626	-0.039312504
26	0x3ae072c8	0.0017124051
27	0x3c02d219	0.0079846615
28	0x3d3f9b91	0.04677922
29	0x3d677da2	0.056516297
30	0xbd684318	-0.05670461
31	0xbd382020	-0.04495251
32	0xbcf1004c	-0.029419087
33	0xbcdc440a	-0.026887912
34	0x3c868740	0.016421914
35	0xba47e886	-0.0007625896
36	0xb955f2f8	-0.00020403776
37	0x3cf9f80e	0.03051379
38	0xbd48ac38	-0.048992366
39	0x3d3d989a	0.04628811
40	0xbd396dfd	-0.04527091
41	0x3ca5f86c	0.020260058
42	0xbc8a63bd	-0.016893262
43	0x3c6edae1	0.014578552
44	0x3cd3ce4c	0.025855206
45	0x3ca05c4b	0.019575259
46	0x3d6c63ab	0.05771224
47	0xbd5f8c42	-0.05457712
48	0x3d68b912	0.05681712
49	0x3d61bb61	0.05511034
50	0x3d1ba110	0.037995398
51	0x3b8fd62c	0.004389545
52	0x3d33deea	0.04391376
53	0xba9beacb	-0.0011895535
54	0x3cd2d5ca	0.025736708
55	0x3d0480cb	0.03234939
56	0x3d2c5e02	0.04208184
57	0xbd1fc1f0	-0.039003313
58	0x3d571726	0.05251231
59	0x3c540cd5	0.0129425125
60	0xbcec0a4b	-0.028813502
61	0xbc3c3100	-0.011486292
62	0xbcb49c3b	-0.022047153
63	0xbc02fd79	-0.007995003
64	0xbccc7724	-0.024959154
65	0x3d50efe3	0.051010024
66	0xb8d24126	-0.00010025715
67	0xbb55fc6f	-0.0032651683
68	0xbd716037	-0.05892965
69	0xbd400158	-0.04687628
70	0xbd6ce475	-0.05783506
71	0x3d318155	0.04333623
72	0x3d379aaa	0.044825234
73	0xbc06b00d	-0.008220685
74	0xbd095a53	-0.033533406
75	0x396b358e	0.00022431297
76	0x3d3cf803	0.04613496
77	0x3d65520b	0.055986445
78	0x3d23b5fe	0.039968483
79	0x3cdc32ea	0.026879746
80	0x3d6033ac	0.05473678
81	0xbd21fd7f	-0.039548393
82	0xbc1deff5	-0.00963973
83	0x3d3833eb	0.044971388
84	0x3c916b37	0.01775132
85	0xbd5f50b7	-0.054520335
86	0xbd5f1099	-0.054459188
87	0x3cef4b6e	0.029210772
88	0xbca2f050	-0.01988998
89	0xbc3fa938	-0.01169806
90	0xbd49ecd2	-0.049298115
91	0x3cefc409	0.029268282
92	0x3c5d29f5	0.013498773
93	0xbd1e7d48	-0.038693696
94	0x3d5dcf3a	0.054152705
95	0x3d3d16b7	0.04616424
96	0xbd394a2e	-0.04523676
97	0xbd4f3734	-0.050589755
98	0xbc2c550b	-0.010518323
99	0x3a422e4f	0.0007407413
100	0x3cd41080	0.025886774
101	0x3d682337	0.05667421
102	0x3c1a0624	0.009400878
103	0x3a9a90c1	0.0011792408
104	0x3cf03dfe	0.029326435
105	0x3d523901	0.051323894
106	0x3cd8b30b	0.026452562
107	0xbccedbb0	-0.02525124
108	0x3d522616	0.051305853
109	0x3cc92ba3	0.02455694
110	0x3d71e733	0.05905838
111	0x3cac533a	0.02103578
112	0xbcb899c9	-0.022534268
113	0x3cd5c453	0.026094591
114	0x3cd14be7	0.025548888
115	0xbd76d747	-0.0602639
116	0xbd29d648	-0.04146412
117	0xbd28f20d	-0.041246463
118	0xbd6d8c18	-0.057994932
119	0x3cf84cfb	0.030310145
120	0x3d4319a1	0.047631864
121	0x3bf95840	0.007609397
122	0x3c1ec93c	0.009691533
123	0xbd33893f	-0.04383206
124	0x3d2df1ed	0.042467047
125	0xbc067e1b	-0.008208777
126	0xbceddaae	-0.029034939
127	0x3d107b2f	0.035273727
128	0x39b6014c	0.0003471471
129	0x3c9e5d84	0.019331701
130	0x3d1b0ec2	0.03785587
131	0xbd4150f6	-0.04719635
132	0x3d17fcdf	0.03710639
133	0x3d2236a6	0.039602898
134	0xbd729ab5	-0.05922957
135	0xbc343fb4	-0.011001516
136	0xbcca8a32	-0.0247241
137	0x3b842aec	0.004033437
138	0xbd220a84	-0.03956081
139	0x3d0497c1	0.032371286
140	0x3d68b635	0.05681439
141	0xbd256ae5	-0.040385146
142	0xbac796ac	-0.0015227399
143	0xbd371b16	-0.044703566
144	0xbc1def90	-0.009639636
145	0x3d6b23d5	0.05740722
146	0x3bb05299	0.00538094
147	0x3d781267	0.060564425
148	0x3d3d457d	0.046208847
149	0x3cd5ffb3	0.026122903
150	0x3d0cf2a1	0.034411076
151	0xbab3cbda	-0.0013717369
152	0xbd652319	-0.055941675
153	0x3d3a8b49	0.04554299
154	0xbd165918	-0.03670606
155	0xbb0f720e	-0.002188805
156	0x3d70a6b3	0.058752727
157	0xbd25ae79	-0.040449593
158	0xbd6c679f	-0.05771601
159	0x3cc5fb9a	0.024167825
160	0x3d7f9b97	0.06240424
161	0x3d503d81	0.050839905
162	0x3c3fadc9	0.011699148
163	0xbbebfc2f	-0.0072016935
164	0xbc9ad3c6	-0.01889981
165	0x3d00f829	0.031486664
166	0xbcf8bca3	-0.030363386
167	0x3b2939be	0.002582177
168	0x3ce44e0c	0.027869247
169	0x3c211bcd	0.009833288
170	0x3ccc0a58	0.024907276
171	0xbca78b84	-0.020452268
172	0x3a371912	0.0006984632
173	0x3cd119f7	0.025525076
174	0x3c2ac618	0.010423206
175	0x3d0ec481	0.03485537
176	0x3d4b2d50	0.04960376
177	0xbcfc2d8e	-0.03078344
178	0xbd2f5736	-0.04280778
179	0x3d182508	0.03714469
180	0x3cd79ced	0.026319945
181	0xbc0595df	-0.008153408
182	0xbd721d5f	-0.05911004
183	0x3d0af792	0.033927508
184	0xbc39ddc4	-0.011344377
185	0x3d6944ad	0.05695026
186	0xbbab8927	-0.0052348557
187	0xbce3b387	-0.027795566
188	0xbc08e9a4	-0.0083564855
189	0x3c24b4be	0.010052858
190	0x3d01d445	0.031696577
191	0x3d6af2f8	0.05736062
192	0xbd530be6	-0.05152502
193	0xbc551732	-0.0130060185
194	0x3d0d2bea	0.034465708
195	0x3ca997c3	0.020702248
196	0xbd50a375	-0.050937135
197	0x3cd9afef	0.02657315
198	0xbd5d66ca	-0.054053105
199	0x3b3196f1	0.0027098025
200	0xbd4b4497	-0.04962596
201	0xbd5f8bb4	-0.05457659
202	0xbd18cca6	-0.037304543
203	0x3c17a7cd	0.009256315
204	0x3d548fdd	0.05189501
205	0x3d44f74d	0.048087407
206	0xbd2fd152	-0.042924233
207	0xbce7d690	-0.028300554
208	0x3d6b8cc0	0.057507277
209	0x3bc36169	0.00596254
210	0x3bd62663	0.006535338
211	0x3d7cc14d	0.061707783
212	0xbc9f1aa8	-0.01942189
213	0xbd0c6cb7	-0.034283366
214	0x3d17e823	0.037086617
215	0xbd3cffb8	-0.04614231
216	0x3b9244fd	0.0044637905
217	0x3cdef7e4	0.027217813
218	0xbd284d60	-0.041089416
219	0xbd5cad38	-0.05387613
220	0x3cc5b586	0.024134409
221	0x3d4f0674	0.050543264
222	0xbcaed609	-0.021342294
223	0x3cdb3560	0.02675885
224	0xbc1fab14	-0.009745378
225	0xbb00006f	-0.0019531508
226	0x3a87dd63	0.0010365661
227	0xbd47a3cf	-0.048740204
228	0xbd488f4f	-0.048964795
229	0x3d695aaa	0.05697123
230	0xbc12a830	-0.008951232
231	0x3d492d98	0.049115747
232	0xbd3afd3b	-0.045651656
233	0xbc16983f	-0.009191572
234	0x3ca3d909	0.020000951
235	0x3cd7f26b	0.026360711
236	0xbd254816	-0.04035195
237	0x3c81a0aa	0.01582368
238	0xbcf205b8	-0.029543743
239	0xbd78b5f9	-0.060720418
240	0x3ce80cd6	0.028326433
241	0xbbfd1097	-0.007722925
242	0xbc1e83dd	-0.009674993
243	0x3ccac568	0.024752334
244	0xbbfab8d6	-0.0076514287
245	0x3d571408	0.052509338
246	0xbc2ab8cf	-0.010420038
247	0x3bc448d8	0.005990129
248	0xbd516b55	-0.05112775
249	0x3c9a7616	0.018855136
250	0xbbb81303	-0.0056175007
251	0x3d565ea6	0.052336358
252	0xbc12ce50	-0.008960322
253	0x3d0cd074	0.034378484
254	0xbd02e083	-0.031952392
255	0x3d712954	0.058877304

main.4.bias f4 [256]
0	0xbca66b25	-0.020314762
1	0x3de6452e	0.11243664
2	0x3c930483	0.017946487
3	0xbc20a8a9	-0.009805837
4	0x3d28d70f	0.04122072
5	0x3b3ebc31	0.002910387
6	0xbc7f5d1b	-0.015586163
7	0xbd73c1d7	-0.059511032
8	0xbc9f4996	-0.019444268
9	0x3cbcf895	0.023067752
10	0xbb8f7577	-0.0043780166
11	0x3e29f4c4	0.16597277
12	0xbd49281d	-0.04911052
13	0x3dc061e5	0.09393672
14	0x3d5795ad	0.052632976
15	0x3bdea2c1	0.006794304
16	0xbd75c6a4	-0.06000389
17	0xbc4cad1e	-0.012492446
18	0x3d01986a	0.031639494
19	0x3e5832e6	0.21113166
20	0x3d021440	0.031757593
21	0x3be2f0b8	0.0069256686
22	0xbd30429e	-0.04303228
23	0xbd4181b6	-0.047242843
24	0x3d332ae8	0.04374209
25	0xbd40abba	-0.04703877
26	0x3e2616ca	0.16219631
27	0xbd59ce0a	-0.05317501
28	0xbc56251d	-0.013070372
29	0xbcaafb1b	-0.02087169
30	0xbd8b8f10	-0.068143964
31	0x3de7677e	0.112990364
32	0xbd41496e	-0.04718917
33	0x3c91c0ba	0.017792094
34	0x3c28f1c6	0.0103115495
35	0xbd44e20e	-0.048067145
36	0xbd8be38c	-0.068305105
37	0xbd84d67f	-0.064862244
38	0x3dd45203	0.10367205
39	0xbd73ef62	-0.059554465
40	0xbd470ee9	-0.048598204
41	0x3be09c86	0.0068545965
42	0xbcd9d0c2	-0.026588801
43	0x3cd0db19	0.025495099
44	0x3daa488c	0.083146185
45	0xbaa902b2	-0.001289448
46	0x3d34d274	0.044146016
47	0xbc8518fd	-0.016247267
48	0xbd18c2ce	-0.037295155
49	0x3ce14c12	0.027502093
50	0xbd839ff4	-0.06426993
51	0xbcf81a33	-0.03028593
52	0x3aec7b4e	0.0018042119
53	0x3c68b606	0.014203554
54	0xbc9aa67d	-0.018878216
55	0x39e69eb7	0.0004398727
56	0xbd4dc90e	-0.05024057
57	0x3d8e2833	0.06941261
58	0xbc866c4d	-0.016409064
59	0x3dc0b5aa	0.0940965
60	0x3a3e1b8c	0.00072520296
61	0xbd032da1	-0.032025937
62	0x3cb01b1d	0.021497304
63	0xbc248141	-0.010040582
64	0x3d2c4d9b	0.042066198
65	0xbca6862b	-0.020327648
66	0xbc64b843	-0.013959947
67	0xbcde421e	-0.027131137
68	0xbd03fc43	-0.032222997
69	0xbd3173d5	-0.043323357
70	0x3d1d8cc2	0.038464315
71	0xbbe60ac2	-0.0070203254
72	0xbd126a55	-0.035745937
73	0x3d18f76f	0.037345346
74	0x3e08b6d1	0.13350989
75	0x3db33ef3	0.08752241
76	0xbc7aa062	-0.015297027
77	0x3d8df18b	0.06930836
78	0xbcd75f92	-0.026290689
79	0xbd26e7be	-0.04074835
80	0xbc1988f3	-0.00937103
81	0x3e07d3dc	0.13264412
82	0x3d4d5f53	0.050139736
83	0xbc6d012d	-0.014465612
84	0x3e144bee	0.1448209
85	0xbcc4c84f	-0.024021296
86	0xbd307fb6	-0.043090545
87	0x3e2aa628	0.16664946
88	0xbd1ebb66	-0.038752936
89	0xbb022b12	-0.0019862098
90	0x3931d28b	0.00016958469
91	0x3d3753ce	0.044757657
92	0xbcc5282a	-0.024067003
93	0x3cc3d620	0.023905814
94	0x3d537e44	0.05163409
95	0x3df87ebb	0.12133547
96	0xbb1ef0a8	-0.002425233
97	0xbca8e107	-0.020615114
98	0x3e03a827	0.12857114
99	0x3c04c639	0.008103901
100	0x3b1a4fd4	0.0023546116
101	0x3d2e58b1	0.04256505
102	0x3d5c9e39	0.05386183
103	0xbd4dd734	-0.05025406
104	0xbd85d6f5	-0.065351404
105	0xbcc48634	-0.023989774
106	0x3c5fd7ec	0.01366232
107	0xbb106aae	-0.0022036242
108	0xbd3faa34	-0.046793178
109	0x3e107221	0.14106037
110	0xbd594759	-0.053046558
111	0xbc7a5e50	-0.015281275
112	0xbd4242ac	-0.047426865
113	0xbd728c03	-0.059215557
114	0xbd9abbb8	-0.07555336
115	0x3b7f174a	0.0038923793
116	0x3dc3676e	0.09541212
117	0x3d869936	0.065721914
118	0x39cc4a6f	0.0003896537
119	0xbd5a9968	-0.053368956
120	0x3e012fe4	0.12615925
121	0xbd078837	-0.03308889
122	0x3d2b392f	0.04180258
123	0xbd6d466c	-0.057928488
124	0xbd0419c9	-0.032251153
125	0xbcdfd3cd	-0.027322674
126	0x3b7d497a	0.0038648532
127	0x3d229af2	0.03969855
128	0xbd255caa	-0.040371574
129	0x3d5f506e	0.054520063
130	0x3d85da41	0.06535769
131	0xbd97dcc5	-0.07415155
132	0x3cf1caa2	0.029515568
133	0xbd085626	-0.033285283
134	0xbcfe4192	-0.031037126
135	0x3de8d0eb	0.11367973
136	0xbd7b4933	-0.061349105
137	0xbbf0a3c5	-0.0073437416
138	0x3c7b4d11	0.015338198
139	0xbd717b15	-0.05895527
140	0xbd6ba7c0	-0.057533026
141	0xbd4afc4b	-0.04955701
142	0xbb06b956	-0.0020557246
143	0x3de79a29	0.113087006
144	0xba0fb037	-0.0005481275
145	0xbc9bde5e	-0.019026931
146	0xbd01e8b8	-0.03171608
147	0x3d04a15e	0.032380454
148	0xbc203ab9	-0.009779626
149	0xbb480c67	-0.003052497
150	0x3d09d613	0.033651423
151	0x3cc9ffe3	0.02465815
152	0xbd743fcd	-0.059631158
153	0xbd1ea6ff	-0.03873348
154	0x3dac5f42	0.084166065
155	0xbd00fd83	-0.031491768
156	0xbd155ef5	-0.03646751
157	0xbd2baa0d	-0.04191022
158	0x3d3121a5	0.043244977
159	0xbd34e75e	-0.04416596
160	0xbbe1c10c	-0.006889468
161	0xbd9cab68	-0.07649881
162	0x3ce421d8	0.02784817
163	0x3e1099b1	0.14121129
164	0xbd1988d7	-0.037484016
165	0x3c935117	0.017983003
166	0xbd55889e	-0.05213224
167	0x3d0bb2f6	0.034106217
168	0x3d4dd1b4	0.050248817
169	0xbd561546	-0.05226638
170	0xba00cc90	-0.00049132947
171	0xbd6cfcc3	-0.05785824
172	0x3cb6883a	0.022281755
173	0x3c4c0b70	0.012453899
174	0xbd4bd402	-0.049762733
175	0xbd6318ae	-0.05544346
176	0x3db7ce31	0.08974875
177	0xbd91e40e	-0.07123576
178	0x3c922d5e	0.017843898
179	0x3da96c19	0.08272571
180	0x3d159a3f	0.036524054
181	0x3dc38b8f	0.09548103
182	0xbd51f584	-0.051259533
183	0xbd3c2188	-0.045930415
184	0xbcb7680e	-0.022388484
185	0xbc8ce815	-0.01720051
186	0xbc284d18	-0.010272287
187	0x3cb26eee	0.021781411
188	0x3ba0660a	0.0048949765
189	0xbd05f3bf	-0.032703158
190	0xbd2c1664	-0.04201354
191	0x3cb5048c	0.022096895
192	0xbd3bc12e	-0.045838527
193	0x3dad1b07	0.08452421
194	0xbcd489a2	-0.025944535
195	0x3d30839e	0.04309427
196	0xbd17e877	-0.03708693
197	0xbcb81748	-0.022472039
198	0x3e0f4a3f	0.13993166
199	0xbd4eb070	-0.050461233
200	0x3d39d4db	0.04536901
201	0xbc3c7c41	-0.011504234
202	0xbd341e55	-0.04397424
203	0x3c198c8b	0.009371887
204	0x3d2dd032	0.04243488
205	0xbd16d2e5	-0.03682222
206	0xbd17bac4	-0.037043348
207	0xbc6604cd	-0.0140392305
208	0xbcd99eca	-0.026564974
209	0xbd925bed	-0.0714644
210	0xbd6bd34e	-0.057574563
211	0x3da9d2e7	0.082921796
212	0xbc0ff5cb	-0.008786629
213	0xbd717533	-0.05894966
214	0xbd41ca69	-0.047312174
215	0xbd6ee25a	-0.058321334
216	0xbd44f13b	-0.048081618
217	0xbd7aab99	-0.061198805
218	0xbd7a9b56	-0.061183296
219	0xbaa4ce72	-0.0012573733
220	0xbcc22809	-0.02370073
221	0xbd1466ae	-0.036230735
222	0x3c8ea1ca	0.017411131
223	0x3dbdf460	0.092751265
224	0xbc130e60	-0.008975595
225	0x3de0c0fb	0.10974308
226	0xbc5147d8	-0.012773477
227	0x3c966d31	0.018362613
228	0xbd18cde0	-0.037305713
229	0xbc73e777	-0.0148867285
230	0x3e1dc4c4	0.15407091
231	0xbb388c89	-0.0028159937
232	0x3d091f4b	0.03347711
233	0xbd39917d	-0.045304764
234	0xbca99f27	-0.020705773
235	0x3e15883c	0.1460275
236	0xbccac1c5	-0.0247506
237	0xbceec522	-0.029146735
238	0xbd2692fc	-0.04066752
239	0xbc867f20	-0.01641804
240	0x3c54a7d0	0.012979463
241	0xbc53d4c2	-0.012929143
242	0xbbe01a39	-0.0068390635
243	0x3daf40b9	0.08557267
244	0xbc338280	-0.010956407
245	0x3c98b12a	0.018639166
246	0xbd73c9b7	-0.059518542
247	0x3d35b59a	0.044362642
248	0xbc6cd9d4	-0.014456231
249	0x3d959741	0.0730424
250	0x384e3e6f	4.9172373e-05
251	0xbd380a6d	-0.044931818
252	0xbd36edb4	-0.044660285
253	0xbd58f6e2	-0.05296982
254	0xbce50226	-0.027955126
255	0xbd757086	-0.059921764

main.6.weight f4 [100, 256]
0	0x3d443d69	0.047910128
1	0xbd1320fe	-0.035920136
2	0xbcfafeca	-0.030639071
3	0xbd2d31c1	-0.042283777
4	0xbc86c09f	-0.01644927
5	0xbd3746d7	-0.044745293
6	0x3c9cb5da	0.019129682
7	0x3cf8a226	0.030350756
8	0xbd0b728d	-0.03404479
9	0xbd43a20d	-0.047761966
10	0xbd43e6dc	-0.047827587
11	0x3d2ec0d8	0.04266438
12	0xbcff9067	-0.031196786
13	0x3d1533eb	0.036426466
14	0xbc965b3d	-0.018354053
15	0x3d0f1442	0.03493143
16	0xbcf9fa99	-0.030515002
17	0x3ccd7904	0.025082119
18	0xbca72e7c	-0.020407908
19	0xbd35c216	-0.044374548
20	0x3d4cd86b	0.05001108
21	0xbd5d889e	-0.054085366
22	0xbccde84e	-0.025135186
23	0x3ccda03b	0.025100818
24	0x3d44825b	0.04797588
25	0x3cbe68d2	0.023243342
26	0xbbe438e6	-0.0069647906
27	0xbd48bb6a	-0.049006857
28	0x3b26bfb4	0.0025443854
29	0x3b332e26	0.002734074
30	0xbcb79b2c	-0.022412859
31	0xbd71b323	-0.05900873
32	0xbcb87531	-0.022516819
33	0xbc6b6311	-0.014366881
34	0x3c23d9f0	0.010000691
35	0xbd02e3b8	-0.03195545
36	0xbd1d8008	-0.03845218
37	0x3d78fed0	0.060789883
38	0xbb12e1cc	-0.0022412417
39	0xbcf2db9d	-0.029645735
40	0x3d5323a7	0.051547673
41	0x3d5cb3f8	0.05388257
42	0x3d58001e	0.052734487
43	0xbd2e6e8c	-0.042585894
44	0xbc6fca1f	-0.014635592
45	0xbc8c0903	-0.01709414
46	0x3d080b37	0.03321382
47	0xbca1be1a	-0.019743968
48	0x3d699812	0.05702979
49	0xbcc74b7f	-0.024327992
50	0x3d436bf0	0.04771036
51	0xbd7b9192	-0.061418124
52	0xbd10062b	-0.035162132
53	0x3bf1b3e1	0.0073761796
54	0x3ce3c0af	0.02780184
55	0x3d1f5083	0.03889514
56	0xbd4e12f2	-0.050311036
57	0xbcd554eb	-0.026041469
58	0x3d5281e8	0.05139342
59	0x3bc86a38	0.006116178
60	0xbd2c445a	-0.042057373
61	0xbc77c022	-0.015121492
62	0x3d40c8c1	0.047066454
63	0xbd52359d	-0.05132066
64	0xbd5c9e75	-0.053862054
65	0xbb85675f	-0.0040711607
66	0x3d0b6173	0.03402848
67	0x3d7b03a9	0.061282787
68	0x3ce19dda	0.02754109
69	0x3d69e0c5	0.057099123
70	0x3c54ecb4	0.012995888
71	0xbd75c599	-0.060002897
72	0x3d136e20	0.035993695
73	0xbd3f9ded	-0.04678147
74	0x3d0de7a0	0.034644723
75	0xbd05ba12	-0.032648154
76	0x3d73afc6	0.059493802
77	0x3d276146	0.04086425
78	0xbcbe3db4	-0.023222782
79	0xbd3c83f2	-0.04602427
80	0x3b9c8543	0.004776628
81	0xbd24233d	-0.04007267
82	0x3cab8cbf	0.020941136
83	0x3b4bb1db	0.0031081352
84	0xbd3abb2f	-0.04558867
85	0x3c3f6abd	0.011683163
86	0xbd70037c	-0.058597073
87	0x3c89b2b8	0.016808853
88	0xbd42683f	-0.047462698
89	0xbc72aae0	-0.014811248
90	0x3d720d72	0.059094854
91	0x3cd829c3	0.026387101
92	0x3d26fc59	0.040768
93	0x3d0e2327	0.034701493
94	0x3d5df127	0.05418506
95	0xbc366223	-0.011131796
96	0x3d4007b8	0.04688236
97	0x3d4c9768	0.04994908
98	0x3cfe59e8	0.03104873
99	0x3c2e5ffa	0.010643
100	0x3d770de8	0.060315996
101	0x3d33f33f	0.04393315
102	0xbd4e3419	-0.050342653
103	0x3d08ce45	0.03339984
104	0xbd6c90e7	-0.057755377
105	0x3d5ea8cf	0.054360207
106	0xbce23055	-0.027610937
107	0xbd327a69	-0.04357377
108	0x3d0b3157	0.0339826
109	0xbcfef720	-0.031123698
110	0xbd4074eb	-0.0469865
111	0xbd3ca516	-0.046055876
112	0xbd11e858	-0.03562197
113	0xbd0deb0d	-0.03464799
114	0xbca651c0	-0.020302653
115	0x3d4bedc2	0.04978729
116	0x3d4bce12	0.04975707
117	0xbd093eb5	-0.033507068
118	0x3d16c3f0	0.036807954
119	0xbbca0cad	-0.006166062
120	0x3ceac973	0.028660512
121	0xbd46b178	-0.04850909
122	0xbd50087f	-0.050789353
123	0x3b4138aa	0.0029483237
124	0xbc20fba7	-0.009825624
125	0xbd022246	-0.031770967
126	0x3c6a2f2f	0.014293476
127	0xbd3ed4e3	-0.046589743
128	0x3d6c58b4	0.05770178
129	0xbcabb5af	-0.020960657
130	0xbd116a29	-0.035501633
131	0xbca108bd	-0.019657487
132	0x3ce13142	0.027489308
133	0x3d7c5fa3	0.061614644
134	0x3cf5ddd8	0.03001301
135	0x3bb1243e	0.0054059317
136	0xbd415bb1	-0.047206584
137	0xbd3abe75	-0.04559179
138	0xbd1753d7	-0.03694519
139	0x3c6ad777	0.014333597
140	0x3d555a5a	0.05208812
141	0xbce483f4	-0.027894951
142	0x3d1d05fd	0.03833579
143	0xbb238d1b	-0.0024955932
144	0x3d439b08	0.04775527
145	0x3c1d15c2	0.009587707
146	0x3d67113c	0.05641292
147	0x3d3c4a07	0.045969035
148	0xbc11e288	-0.008904107
149	0xbd4d64fc	-0.050145134
150	0xbd29665f	-0.041357394
151	0xbd034aa2	-0.032053597
152	0x3c4d085c	0.0125142
153	0x3d71a9d0	0.058999836
154	0xbc810af7	-0.015752299
155	0x3d285a9c	0.041102037
156	0x3d1b0d0a	0.037854232
157	0xbd41f43a	-0.047352053
158	0xbd45b213	-0.048265528
159	0xbd0824fd	-0.0332384
160	0xbd043b89	-0.03228334
161	0xbc3ffa8a	-0.011717448
162	0x3cc734be	0.024317142
163	0xbc30d434	-0.010792781
164	0xbc598ba6	-0.013277924
165	0x3d4c1c45	0.049831647
166	0x3c45e79e	0.012079148
167	0xbc4ecff5	-0.012622823
168	0x3d1c9c3f	0.038234945
169	0xbced155a	-0.028940845
170	0xbd1aede8	-0.03782454
171	0xbca68239	-0.020325767
172	0x3c89132c	0.016732775
173	0xbd4d959f	-0.050191518
174	0xbd80c718	-0.06287974
175	0x3d71ac60	0.05900228
176	0x3d5f0f4f	0.05445796
177	0xbd3bea08	-0.045877486
178	0x3d2b33c8	0.04179743
179	0x3ce50c48	0.027959958
180	0xbd502299	-0.050814245
181	0x3ca50487	0.02014376
182	0x3d6aad87	0.057294395
183	0xbd75e3f0	-0.06003183
184	0x3d4ca948	0.049966127
185	0x3c61d847	0.013784475
186	0x3b038c4e	0.0020072642
187	0xbd58bf62	-0.052916892
188	0xbd3c3068	-0.0459446
189	0x3d71b21b	0.059007745
190	0xbce18d49	-0.02753319
191	0xbd3b7ae7	-0.045771506
192	0x3d268d3b	0.04066203
193	0xbc641459	-0.013920867
194	0x3d02a13a	0.03189204
195	0xbd5cfe25	-0.05395331
196	0x3cc5ae40	0.02413094
197	0x3ba5491e	0.0050441166
198	0x3d15783a	0.03649161
199	0xbc151299	-0.009098672
200	0x3d293ced	0.04131787
201	0xbd2f29b2	-0.042764373
202	0x3cc5dfd8	0.024154589
203	0x3d378d72	0.044812627
204	0x3d20d8ee	0.03926938
205	0x3d68f557	0.0568746
206	0x3d03fe42	0.0322249
207	0x3c8c314e	0.017113354
208	0xbcf6a528	-0.03010805
209	0xbcf40bb1	-0.029790731
210	0xbc8faee3	-0.017539447
211	0x3cd33bfb	0.025785437
212	0x3b1f150c	0.002427402
213	0xbd146a8b	-0.03623442
214	0xbd5fc349	-0.054629598
215	0x3cd824a1	0.026384654
216	0x3c30a58a	0.010781655
217	0x3bb899f6	0.005633588
218	0x3d31af1e	0.043379895
219	0x3d43ddc5	0.047818918
220	0x3d0ab969	0.033868227
221	0x3ceb00a7	0.028686834
222	0x3ce77a25	0.028256485
223	0xbd2c72d1	-0.042101685
224	0x3c85b9c4	0.016323932
225	0x3cbc3741	0.022975566
226	0x3d6fe0c7	0.058563974
227	0xbd5a859b	-0.053350072
228	0xbc8a26b4	-0.016864158
229	0x3cdf6ca1	0.027273478
230	0xbd121739	-0.035666678
231	0x3ca908ca	0.020634074
232	0xbbaa6d2c	-0.0052010026
233	0x3d3577cc	0.0443037
234	0x3d29a3fc	0.041416153
235	0xbd4436a8	-0.047903687
236	0xbcf44015	-0.029815713
237	0x3d308134	0.043091968
238	0x3cb856aa	0.022502262
239	0x3d3b35f2	0.045705743
240	0xbca2477b	-0.019809475
241	0x3d6bc693	0.057562422
242	0xbd50fcec	-0.051022455
243	0xbd411021	-0.047134522
244	0x3c6fbedc	0.014632907
245	0xbc961c89	-0.018324153
246	0x3c8b1570	0.016977996
247	0x3cc8adf5	0.024497012
248	0x3d0d7178	0.03453204
249	0xbc5cab40	-0.013468564
250	0x3d7749cd	0.060373116
251	0xbcab3b8c	-0.020902418
252	0x3ce829a0	0.02834016
253	0x3c518ce7	0.012789941
254	0x3d32ae77	0.043623414
255	0xbd01e87e	-0.031715862
